b3.npy (npy, 4224 bytes, 1 tensors)

array f4 [1024]
000000 2b c6 7b 3e f0 99 e5 be b3 2e 39 3f b0 df 8c 3d
       0.24587314 -0.44844007 0.7233688 0.068786025
000010 a0 e5 eb bc 30 8e 6d be 56 e7 ad 3f d5 a3 bc 3f
       -0.028796017 -0.23198771 1.3586223 1.4737498
000020 73 81 40 bf 18 fc b2 3e 31 62 20 40 62 c2 33 3f
       -0.75197524 0.34957957 2.5059931 0.7021848
000030 e5 2d d0 3f 04 5e 6d bf dd 32 1f bf a7 f6 6a 3f
       1.6264006 -0.9272158 -0.62186986 0.9178261
000040 44 93 9c be ea 1d 58 bf 7f fd 80 3f d1 e1 1f bf
       -0.30581105 -0.84420645 1.0077361 -0.62453943
000050 68 de e3 bf ee 16 72 3f 04 00 aa 3e bc 98 95 bf
       -1.7802248 0.9456624 0.33203137 -1.1687236
000060 2c 03 03 bf b4 a5 00 40 30 cf be bf a2 9e ac 3f
       -0.51176715 2.0101137 -1.4906979 1.3485911
000070 85 a7 e4 3f 07 44 0d 40 90 ba 00 bf b2 17 ac 3f
       1.7863623 2.207277 -0.5028467 1.3444731
000080 8b fd 07 3d fa 96 3a be 01 a3 aa 3f eb 58 8f bd
       0.03320078 -0.18221655 1.3330995 -0.06999382
000090 c1 67 d4 3d e6 83 d3 3d 18 04 ab be a4 57 ff 3e
       0.10371352 0.10327892 -0.3340156 0.49871552
0000a0 c5 51 38 be dc e0 82 3f ec 57 8c bf fe d0 be be
       -0.17999943 1.0224872 -1.0964332 -0.37268823
0000b0 5c 18 b6 bf 79 8e 11 bf 22 ad ad 3e 01 4d 8c 3f
       -1.4226184 -0.5685802 0.33921152 1.0961
0000c0 bd 1d 3c bf 6a 65 88 3e e5 62 88 3b 60 5e 5d 3f
       -0.73482877 0.26639873 0.00416218 0.8647213
0000d0 7d b3 74 3f 6f 54 74 bf 18 d1 10 be 9c 78 ae bf
       0.9558638 -0.95441335 -0.14142263 -1.3630557
0000e0 a2 81 2c 3f 74 f7 8b 3f e8 7a 7d 3e e1 e3 87 3f
       0.67385304 1.0934892 0.24753916 1.0616418
0000f0 8c 66 87 bf a1 7b 6c be 9b ca 4e be bf 3e 69 3f
       -1.057817 -0.23094036 -0.20194475 0.9111137
000100 45 af 62 bf f6 7a 57 bf 7c 4b 41 bf 32 38 9e bf
       -0.8854869 -0.84172 -0.75505805 -1.23609
000110 4c 8a c6 bd 15 ce 5d bf 81 f3 07 c0 0d 6c c6 3f
       -0.09694347 -0.8664258 -2.1242373 1.5501724
000120 8c b9 3a 3f a4 32 77 3f 45 0a 60 3d 54 f6 3f bd
       0.7293937 0.96561646 0.054697294 -0.046865776
000130 52 63 14 3f a3 e7 f4 3f 58 c6 88 3e d7 7b e1 be
       0.5796405 1.913319 0.26713824 -0.44039795
000140 48 14 64 be 2f 7e 01 3e fe cc 24 bf 5e 33 40 bf
       -0.22273362 0.12645791 -0.64375293 -0.7507838
000150 65 b8 bc be 9a 32 cb be c2 dc da bd 61 75 55 bf
       -0.36859432 -0.39687043 -0.106866375 -0.8338223
000160 17 22 ce 3c ff 0a 34 3f 6d 38 83 bf 35 7b 34 3f
       0.02516274 0.7032928 -1.0251595 0.705005
000170 51 02 b9 be 2a 5f c3 bd 0a be 0d bf 66 c9 b2 bd
       -0.3613458 -0.095396355 -0.553681 -0.0872982
000180 33 c3 2d 3f 92 d8 f3 bf a1 8e 81 3e 82 3c e3 3e
       0.67875975 -1.9050467 0.2530413 0.443821
000190 77 06 47 3f d4 8b e9 3f dd f6 61 3f 69 fe 8b 3f
       0.7774424 1.8245797 0.8826731 1.0937015
0001a0 a7 91 c6 bd 99 5b bd be 1c 66 c8 bf a9 bb 3a bf
       -0.0969575 -0.36983946 -1.5656161 -0.72942597
0001b0 16 07 a4 3e 35 1b 05 3d 76 42 ed be 9f 7b b0 bd
       0.32036656 0.03249665 -0.46339768 -0.08617329
0001c0 ca 4b 2b 3f eb 5a 94 bf 7a e9 31 3f 48 d6 1d 3e
       0.6691252 -1.1590246 0.6949688 0.15413773
0001d0 e0 38 0a bf c2 e9 0c 3e ee d2 81 3f 03 b2 76 be
       -0.53993034 0.13761047 1.0142496 -0.24091344
0001e0 56 ae 9a 3f c3 61 18 3f f6 83 3d c0 57 3f b4 bf
       1.2084453 0.5952417 -2.9611793 -1.408183
0001f0 52 24 47 bf 62 ef 9a bf 88 d6 8d 3f 4c 21 c5 3e
       -0.77789795 -1.2104304 1.1081095 0.38501966
000200 26 9a 36 bf fe 91 e7 3f 2b 79 04 3f b4 a8 37 be
       -0.7132896 1.8091428 0.5174739 -0.17935449
000210 0b b3 84 be 1f 03 13 c0 4f a6 cf 3e e1 dd 39 3e
       -0.2591785 -2.2970655 0.4055657 0.18151046
000220 ee c3 52 bf da a6 69 bf 32 45 5c 3f 3e 25 75 3f
       -0.82330215 -0.9127022 0.86043084 0.9575995
000230 97 ea 13 be 8c ae 69 3e 8e 65 78 bf 81 a1 59 bf
       -0.14444958 0.2282049 -0.9702996 -0.8501206
000240 d1 0d ef be 1c 92 80 3e 65 69 9a 3e 3f a6 79 bf
       -0.4669023 0.25111473 0.30158535 -0.97519296
000250 8f 9c 53 3f 65 f8 70 3f e2 20 22 3f 98 28 86 c0
       0.82660764 0.9412902 0.63331425 -4.1924553
000260 26 17 50 be e0 90 9a 3f d0 2c 01 bf 4d 9e 95 3d
       -0.2032133 1.2075462 -0.50459003 0.07305584
000270 08 7b 51 bf 6b 12 6a 3f ef 34 d6 3e 54 6e d8 3f
       -0.81828356 0.91434354 0.4183726 1.690867
000280 f0 2c 05 c0 4f c1 0c bc 66 10 94 bf 4c 45 38 bf
       -2.0808678 -0.00859101 -1.1567504 -0.7198074
000290 f2 8d 43 3f 2f ce 20 3f 3d 85 c0 3e 95 f3 5d be
       0.76388466 0.6281461 0.37601653 -0.2167495
0002a0 24 25 61 be d0 fa 6d 3f 4c 3b 06 c0 31 be 93 3f
       -0.21986824 0.92960835 -2.0973692 1.1542417
0002b0 e3 1d a2 3f 49 77 83 3f 18 ca b3 bd b0 b9 a3 3e
       1.2665371 1.0270778 -0.08778781 0.31977606
0002c0 5d 0e 0c 3e d0 48 4c 3f 90 7b b0 be 4e 77 06 bf
       0.13677354 0.79798603 -0.3446927 -0.52525795
0002d0 73 40 28 3f 5e dc f5 be 38 32 8d 3f 9f 05 59 bf
       0.6572334 -0.4801969 1.103095 -0.847742
0002e0 91 7a 75 bc 20 7a 7e bd 69 19 21 3f fb 14 6b bf
       -0.014982835 -0.062128186 0.629294 -0.9182889
0002f0 bb a4 eb 3f ac f7 6a c0 ed 67 12 3f 51 b3 48 bf
       1.8409647 -3.6713667 0.5718983 -0.78398615
000300 43 ec 0a bf 04 5a 06 c0 c6 65 37 bf cd 18 29 3d
       -0.54266757 -2.099244 -0.7163967 0.041283417
000310 ef 5e b6 bf 9b 93 05 3f 2f de 96 3f c2 a3 78 3e
       -1.4247721 0.52178353 1.1786555 0.24281219
000320 6b c1 82 3f 07 79 d9 3f 13 bb 11 c0 ce 0b 23 3f
       1.0215276 1.699006 -2.277043 0.6368989
000330 b5 f7 97 bd cf 43 db bd e2 f5 d2 3e 99 2f 06 c0
       -0.07420293 -0.10706293 0.4120322 -2.0966551
000340 23 22 a0 3e 33 55 44 3f 20 21 92 3f a0 01 86 3f
       0.31276044 0.76692504 1.1416359 1.0469246
000350 f6 c9 18 bf 00 7d 4d bf 21 db 33 c0 95 09 47 3e
       -0.5968317 -0.8026886 -2.8102496 0.19437249
000360 be 95 27 bf bf b9 39 40 6b a6 b0 bf 00 21 58 bf
       -0.65462863 2.901962 -1.3800787 -0.84425354
000370 81 ce ad 3f d1 66 a3 3f d6 23 b9 3e 94 5e 8e be
       1.3578645 1.2765752 0.36160153 -0.27806532
000380 5c eb c6 bf fb 22 03 3f 4f c8 5c bf 6b 36 d7 bf
       -1.5540576 0.5122525 -0.86243147 -1.6813482
000390 f9 5c e9 be 7a 3f 6c 3f ed 79 a0 bf 33 20 d4 bf
       -0.45578745 0.9228436 -1.2537209 -1.6572326
0003a0 97 c2 22 3f 57 1e 3c bf 65 e2 bc be 66 0c fa bf
       0.6357817 -0.73483795 -0.36891475 -1.9535034
0003b0 5f b3 12 3f 61 97 71 be d9 4e 72 bf bc 92 bb bf
       0.5730495 -0.23592903 -0.9465156 -1.4654155
0003c0 4a 9d dd be 8d 67 a7 be e5 b7 a7 bf 1a e2 da 3e
       -0.43284065 -0.3269619 -1.3102995 0.42750627
0003d0 26 d6 b1 bf a8 40 9e 3e d8 5a 21 bf 96 e1 c8 3e
       -1.3893478 0.30908704 -0.6302924 0.39234608
0003e0 67 8a 00 c0 40 58 43 3e ef 8f 82 bf b5 66 e0 bf
       -2.0084474 0.19076633 -1.0200175 -1.7531344
0003f0 6e 51 91 3f f3 6e d0 3e 85 f4 5d 3c 00 47 ab bf
       1.1352975 0.40709648 0.0135470675 -1.3381042
