w1.npy (npy, 3328 bytes, 1 tensors)

array f4 [5, 5, 1, 32]
000000 06 ad 90 bc 40 72 21 bf fc d1 b1 bf 8f 6e d0 bf
       -0.017660629 -0.63064957 -1.3892207 -1.628374
000010 ec c4 0e 3f 35 1f 44 3f 3a 9e 66 3f 1f e5 65 3e
       0.5576923 0.7661012 0.90085185 0.22450684
000020 01 33 84 3d 83 63 d1 be 54 62 62 3f d4 99 94 bf
       0.06455041 -0.40896234 0.88431287 -1.1609445
000030 e3 38 38 bf 73 72 01 3f 21 31 01 bf c7 36 25 bf
       -0.719618 0.5056526 -0.5046559 -0.6453671
000040 4d 2f 2b bf a5 65 49 3f d4 00 4f bf 9b ab cd bd
       -0.6686905 0.7867072 -0.8086064 -0.10042497
000050 cb 30 72 bf 2f b9 98 bf 72 0c 1a 3f 05 b3 41 bf
       -0.946057 -1.1931514 0.6017524 -0.7566379
000060 60 95 8a 3f 0c 9d c7 bf 12 d3 9c be 43 8e ac bd
       1.0826836 -1.5594802 -0.30629784 -0.08425572
000070 fe c7 29 bf ac 02 c1 3d 10 4a f1 3e 85 0d 87 3f
       -0.6632079 0.09424338 0.47126818 1.0551001
000080 f1 84 11 bf d3 68 6a 3f 9c 5c 01 bf a7 e5 d8 be
       -0.5684348 0.915662 -0.50531936 -0.4236271
000090 29 10 60 bf da 95 08 be 73 ed 1c 3f 16 c6 ae 3e
       -0.8752466 -0.13338414 0.6129982 0.34135503
0000a0 fb 44 81 3f 91 40 60 3e bc d8 20 3f 88 f3 d8 bf
       1.0099176 0.2189963 0.6283071 -1.694932
0000b0 2c c7 0b 3f 6d bd a4 3e d7 a4 92 3f 36 f0 e6 bf
       0.5460079 0.3217577 1.1456555 -1.8042057
0000c0 f8 25 c1 3f 4c 67 69 3e ea ab 0d bf 74 f7 5c 3e
       1.5089712 0.22793311 -0.55340445 0.21578771
0000d0 96 d4 96 be f0 cc d5 3e d4 b2 1f 3d 42 6d 38 be
       -0.29459065 0.41757917 0.038988903 -0.18010429
0000e0 b2 b4 d0 bf e8 c9 27 3e 60 cd 93 be fe 19 f3 be
       -1.6305144 0.16385615 -0.28867626 -0.47480768
0000f0 a9 4f 0e bf 54 1f 1e 3f d8 89 9d bf bc 9d a4 3f
       -0.555903 0.6176655 -1.2307692 1.2860637
000100 02 d9 75 be 54 92 ad be 0a a7 2c 3e 42 ff d5 3f
       -0.24008563 -0.33900702 0.16860595 1.6718524
000110 40 a2 03 3f c4 00 f1 bd f1 d4 78 3f aa b2 65 bf
       0.5141945 -0.11767724 0.9719992 -0.89725745
000120 18 4c 4d bf fa 8f 80 3f 4d 2b 11 bf 9f 22 65 be
       -0.80194235 1.0043938 -0.56706697 -0.22376488
000130 96 bb 80 3e 11 9d 24 3f aa ed 56 3f 76 f3 73 bf
       0.25143117 0.64302164 0.83956397 -0.95293367
000140 37 60 b1 3f cd ca fc be 63 4b ed be 06 26 06 c0
       1.3857487 -0.49373475 -0.46346578 -2.0960708
000150 27 19 9c bd 61 51 34 c0 cd 9e a1 3f c2 51 2e bf
       -0.07621985 -2.817467 1.2626587 -0.680935
000160 ac fe 13 3f 7c e7 0f bf 3e 0a 39 3f 37 f0 b7 3e
       0.57810473 -0.5621259 0.72281253 0.35925457
000170 cc 2d d6 3e 81 bf 31 bf b0 b5 2b 3f 0d b7 46 3f
       0.41831815 -0.69432837 0.6707411 0.77623063
000180 7b a7 d4 3e 80 10 9e bf 65 74 4a 3f 30 02 44 bf
       0.41534027 -1.2348785 0.79083854 -0.7656584
000190 fc 45 ab bf e8 bf 32 bd 9b ef da bf fe 4d 3f 3f
       -1.3380733 -0.043640047 -1.7104372 0.7472838
0001a0 46 c9 08 3f c9 47 66 3e bd 27 ad bf 54 44 a0 3f
       0.5343212 0.22488321 -1.3527752 1.2520852
0001b0 4d 55 66 be 9b e6 e3 bf 00 dc 9a 3f 61 7d 5a 3f
       -0.22493477 -1.780475 1.2098389 0.85347563
0001c0 7d b2 1d bd 10 b6 ac 3e 38 5a 52 3e 66 37 50 bf
       -0.038500298 0.33732653 0.20542228 -0.8133453
0001d0 ce d5 e0 3d 39 f6 1f 3f 30 cb 81 3e 64 8d 9b 3f
       0.1097828 0.6248508 0.25350332 1.2152524
0001e0 9c 1f 55 3e e6 c2 10 bd cc c4 28 3f ee cb 0d bf
       0.2081284 -0.03534212 0.6592529 -0.55389297
0001f0 d1 b7 b8 3f cf b2 9b bf 3a 9e a5 3f 16 d1 3e bf
       1.4431096 -1.2163943 1.2938912 -0.7453779
000200 95 bd 12 bf 9e fe e7 bf 28 8c 79 bb c3 a2 10 bf
       -0.5732053 -1.8124578 -0.0038077924 -0.56498355
000210 18 be d3 3e 5e 81 11 bf b6 4b 21 bd 81 2b a0 3f
       0.41355968 -0.56838024 -0.039378844 1.2513276
000220 ed 8b 54 be c5 d1 b4 bf 93 6c 86 3e 9b bf fa bf
       -0.20756502 -1.4126517 0.2625471 -1.9589723
000230 9e c5 af 3f bd 7b 43 bf 00 e3 1f bf aa 33 59 3f
       1.3732183 -0.76360685 -0.6245575 0.8484446
000240 6b b6 2f 3f fc 5c a6 bf e4 47 4e 3f 37 c7 ed bf
       0.6863772 -1.2997127 0.80578446 -1.857642
000250 3f ce e2 bf a7 34 7c 3e 98 bb da be 63 b8 1a bf
       -1.7719191 0.2462946 -0.42721248 -0.604376
000260 96 25 4a bf ae 92 10 3f 0a 92 ce 3d e2 22 99 be
       -0.789636 0.56473815 0.100864485 -0.29909426
000270 7b 3f 6a be 40 38 bc bf 8b 88 eb bd 5a 0a ea 3e
       -0.22875778 -1.4704666 -0.11500653 0.45711023
000280 b5 6b 81 bf be 41 dd bf 21 d8 cf 3f 48 31 96 3f
       -1.0110995 -1.7285688 1.6237832 1.173379
000290 57 52 18 be 76 b2 3f 3e 67 39 6a bc c4 aa fd 3e
       -0.1487516 0.18720421 -0.014295912 0.49544346
0002a0 30 93 c4 3e 22 ab 88 be 76 b5 66 bd 6a 84 f9 3f
       0.38393545 -0.26693064 -0.0563254 1.9493535
0002b0 ff d7 99 bf 0a d5 9c bf 09 e1 e0 be 09 96 82 3f
       -1.2019042 -1.2252514 -0.43921688 1.0202037
0002c0 91 7c 40 bf 98 c8 8e 3f 51 a6 57 bf 21 88 22 bf
       -0.75190073 1.1154966 -0.84238154 -0.63488966
0002d0 87 e7 40 bf ef e7 27 3f 77 b8 1a 3f 23 7d 5c 3f
       -0.7535328 0.6558828 0.6043772 0.86128443
0002e0 19 6b 3a be b3 d9 c3 3e a1 c7 2f bf f5 5f 23 c0
       -0.18204917 0.3825203 -0.68663985 -2.5527318
0002f0 51 d3 89 bf ed 51 1a bf cc a6 b3 3e 69 46 b9 3f
       -1.0767614 -0.6028126 0.35088193 1.4474612
000300 40 1f 9f bf fc d3 98 be 67 49 de be b7 59 93 3e
       -1.2431412 -0.2984923 -0.43415377 0.28779384
000310 d9 e3 36 be 3e 28 05 40 69 94 52 3f 1f 92 f0 3d
       -0.17860354 2.0805812 0.82257706 0.117466204
000320 93 6f 1f bf c3 2d cd 3f 0e f2 ba bf c6 60 3d bf
       -0.62279624 1.602959 -1.4605119 -0.7397579
000330 3f a0 30 bf ce 02 87 3e e2 8a 9d bf 21 18 87 bf
       -0.68994516 0.26369327 -1.2308009 -1.0554239
000340 78 ca dc 3e 2c 21 75 3f 52 85 12 3f b6 70 b8 3f
       0.4312322 0.9575374 0.5723468 1.4409397
000350 5f 7d 5c 3e 48 75 96 be de 44 f7 bd e5 a3 21 bf
       0.215322 -0.29386353 -0.12073682 -0.6314071
000360 a7 c1 e3 3e 7e dd 85 3f ea 2e b0 3e 08 b2 be bf
       0.44483683 1.0458219 0.34410793 -1.4898081
000370 bd 55 d0 3f b3 a2 11 bf 80 7d 47 be a5 f8 dd be
       1.6276165 -0.56888884 -0.19481468 -0.43353763
000380 a1 8d f6 be 9c 4b 6d be fd 57 0b bf 9e 65 5a 3f
       -0.4815493 -0.23173374 -0.54431134 0.85311306
000390 25 77 86 be 24 9c da be 1f e6 bb bd 08 59 fd be
       -0.26262775 -0.4269725 -0.091747515 -0.49481988
0003a0 3e 15 20 bf d7 70 4e bf 10 81 64 be dc 87 da 3e
       -0.62532413 -0.8064093 -0.22314858 0.42681777
0003b0 58 04 a5 bf 53 12 61 3f ab 22 2d 3e d3 7c fe 3f
       -1.2891951 0.87918586 0.16907756 1.9881843
0003c0 9d b8 0d 40 ca 80 88 3f e2 81 d1 3f c1 19 ba be
       2.214393 1.0664303 1.6367762 -0.36347774
0003d0 52 00 a6 3d 9e cf bc be a5 6e a2 3f 77 64 ed 3f
       0.0810553 -0.3687715 1.2690016 1.8546284
0003e0 c3 ac 5b bf dc 67 cb 3f 3d ff d5 bf e8 71 4c 3f
       -0.8581049 1.589107 -1.6718518 0.7986131
0003f0 6f ad 66 bd 5f 4f 20 be 29 23 9a 3f f2 ac 57 bf
       -0.056317743 -0.15655278 1.204198 -0.8424827
