w2.npy (npy, 204928 bytes, 1 tensors)

array f4 [5, 5, 32, 64]
1.311016 0.37965253 -0.07363623 -0.080288805 1.7916033 -0.62411004 0.06814725 0.095984146
0.061553743 -0.94841784 -0.54014415 0.79118395 -1.3089763 -0.86701787 -0.1025691 0.42102572
-0.82153094 1.284712 -0.53576106 -0.9261048 0.6408433 -0.6681848 0.078269154 -1.3370979
0.41992548 0.70981497 -0.1903047 -1.8144377 -0.934659 2.091486 -0.91388226 -0.034710605
-0.38364285 1.3357035 1.0083622 -2.7500124 0.12254139 0.2486402 1.3041168 0.76622266
-0.0852957 -0.9894733 1.3830781 -1.3854656 -0.5600092 0.9547259 0.6964102 -1.4477432
0.12411414 0.035462905 2.772334 0.050132256 0.9914541 -1.070239 -0.12883762 -0.13995342
0.9336475 0.20645036 -0.6001846 -0.27360532 -0.27323335 -0.45289883 0.57554054 1.7758603
-0.49707723 0.12673564 0.24941559 -0.5973747 -0.8754316 1.6191107 1.7796117 0.20195939
0.8336087 0.3882914 -0.523432 -0.35019517 0.6766267 0.07945627 -1.2813154 -1.6689365
0.5524908 -0.03968003 -1.1030425 -0.045750886 0.5662779 -0.87055475 0.62463677 0.03021147
0.30214185 -0.05524098 0.9099567 0.65579337 -0.56630063 -0.23384055 -1.3058586 -1.063013
-1.6623325 0.50105786 0.14054698 0.7716859 0.50309473 -1.8828593 -1.036735 0.3936361
0.62223977 0.72198874 2.0231042 1.0405235 -0.30101568 -0.73611605 1.3049394 0.864905
-1.92188 -2.1178157 -1.2109529 -0.32339135 0.49933878 -1.5749046 1.5591272 0.31066078
-1.1797225 -1.0061762 -0.4357834 0.8760734 -0.7109338 -1.0337658 -0.026567873 1.0683656
-1.5751787 1.1191738 1.0290602 -0.79416 0.46531016 1.2429501 0.54831004 -0.70174384
0.06722476 -1.0137787 0.26660052 0.4840022 0.83254683 0.28123483 0.12823412 1.3740419
0.4529252 -0.8377543 -2.4422185 -0.94961244 -0.3595967 0.6441825 -0.20696269 -0.08008341
-0.4038973 1.2241292 -0.116464265 1.812213 -0.4268526 0.10877631 -0.49799296 -0.34282622
0.49147895 -1.0031711 -0.10411982 -1.7338867 -1.1809429 0.24617764 0.51869273 -0.5965961
0.037011612 0.66613984 -0.97321653 0.13687389 -0.75685775 -1.5042305 -1.5360136 0.7626493
1.5171221 -1.0734432 -0.6709862 1.8038743 -0.44091853 -0.71926105 0.7069759 -1.5925195
-1.5513366 0.3231538 -1.6815523 1.6409585 0.059625365 -0.17141059 0.060119838 0.7201992
0.17696562 0.8425082 0.015439689 -0.75683206 0.82390773 -0.3576944 -1.3515779 -0.48203048
1.3704789 -1.0026157 -1.2574382 0.9271479 -0.32792565 2.308113 -0.51190937 -1.215046
1.21025 0.6443539 -0.28684205 -1.1716698 -0.58986133 0.8320012 -0.91903627 -0.07511615
0.3687751 -0.028570723 0.8527982 0.3317858 -0.91570216 1.1446972 0.10043303 -0.12948954
-1.1827652 -0.9702386 -0.07581631 0.06060636 -0.029845405 1.7376963 0.062658876 -1.4324423
0.4110087 0.1316256 -1.489022 0.24054857 -0.30524403 0.48026612 -0.21787606 -1.9432532
0.18317913 0.123487025 0.10781219 -0.17958592 -0.23953146 -0.5503577 -1.9008797 0.3304328
1.020597 -1.228914 -0.3299519 0.6190172 -0.9800873 -0.53990114 1.5510412 -0.14713971
00000000: 5fcf a73f d161 c23e 97ce 96bd 756e a4bd
00000010: 4253 e53f adc5 1fbf c990 8b3d 5693 c43d
00000020: c71f 7c3d 83cb 72bf e346 0abf 088b 4a3f
00000030: 898c a7bf e2f4 5dbf c00f d2bd af90 d73e
00000040: da4f 52bf 7171 a43f a327 09bf 3415 6dbf
00000050: 4e0e 243f 290e 2bbf 944b a03d 0626 abbf
00000060: 7900 d73e 6fb6 353f 3cdf 42be 7f3f e8bf
00000070: d045 6fbf e8da 0540 30f4 69bf b52c 0ebd
00000080: d66c c4be 55f8 aa3f 0312 813f 3400 30c0
00000090: fbf6 fa3d 899b 7e3e 4ded a63f 2b27 443f
000000a0: 83af aebd 1f4e 7dbf b408 b13f f056 b1bf
000000b0: c35c 0fbf eb68 743f f047 323f a64f b9bf
000000c0: 8e2f fe3d 8d41 113d ec6d 3140 7b57 4d3d
000000d0: f0cf 7d3f 97fd 88bf 02ee 03be f34f 0fbe
000000e0: 8603 6f3f b967 533e b3a5 19bf ff15 8cbe
000000f0: 3ee5 8bbe 5be2 e7be a056 133f 644f e33f
00000100: e880 febe fdc6 013e cd66 7f3e 8ced 18bf
00000110: 491c 60bf 053f cf3f 51ca e33f 71ce 4e3e
00000120: 6167 553f 21ce c63e a4ff 05bf c84c b3be
00000130: 6837 2d3f f8b9 a23d 2502 a4bf b69f d5bf
00000140: 0970 0d3f 8787 22bd 7f30 8dbf 4865 3bbd
00000150: 97f7 103f addc 5ebf 32e8 1f3f 0b7e f73c
00000160: 56b2 9a3e 5e44 62bd ecf2 683f 13e2 273f
00000170: 14f9 10bf e673 6fbe 6026 a7bf cf10 88bf
00000180: 50c7 d4bf 5445 003f 8ceb 0f3e 358d 453f
00000190: d1ca 003f 8901 f1bf bcb3 84bf ac8a c93e
000001a0: 1b4b 1f3f 41d4 383f 8a7a 0140 e02f 853f
000001b0: ba1e 9abe 1a72 3cbf 4108 a73f 6a6a 5d3f
000001c0: 2a00 f6bf 4b8a 07c0 8100 9bbf 8d93 a5be
000001d0: 55a9 ff3e 7996 c9bf 7b91 c73f ee0e 9f3e
000001e0: 2601 97bf 62ca 80bf 001f dfbe 5946 603f
000001f0: c2ff 35bf 7052 84bf dea4 d9bc 34c0 883f
00000200: 759f c9bf 1641 8f3f 3fb8 833f 124e 4bbf
00000210: 223d ee3e fd18 9f3f 0c5e 0c3f 7ca5 33bf
00000220: 23ad 893d 80c3 81bf dd7f 883e 23cf f73e
00000230: ca21 553f 03fe 8f3e ce4f 033e 9be0 af3f
00000240: d0e5 e73e 1177 56bf 4f4d 1cc0 cd19 73bf
00000250: 0f1d b8be 25e9 243f 07ee 53be c502 a4bd
00000260: a0cb cebe 44b0 9c3f d184 eebd 98f6 e73f
00000270: 6d8c dabe 1dc6 de3d eff8 febe eb86 afbe
00000280: 21a3 fb3e e967 80bf c63c d5bd 00f0 ddbf
00000290: 2329 97bf fe15 7c3e 0cc9 043f 86ba 18bf
000002a0: 7d99 173d 2488 2a3f b824 79bf ab28 0c3e
000002b0: 6ec1 41bf a08a c0bf 189c c4bf fc3c 433f
000002c0: 0f31 c23f 9666 89bf c0c5 2bbf 5ae5 e63f
000002d0: 13c0 e1be 7e21 38bf 5ffc 343f aed7 cbbf
000002e0: 3392 c6bf 6a74 a53e 1b3d d7bf ee0a d23f
000002f0: ba39 743d 4286 2fbe 3840 763d fa5e 383f
00000300: 7a36 353e 9eae 573f c0f6 7c3c bfbf 41bf
00000310: 9eeb 523f b823 b7be 8100 adbf b3cc f6be
00000320: da6b af3f b655 80bf bcf3 a0bf 9159 6d3f
00000330: dfe5 a7be 20b8 1340 7e0c 03bf a186 9bbf
00000340: 79e9 9a3f 61f4 243f f6dc 92be 47f9 95bf
00000350: 2701 17bf 08fe 543f f645 6bbf 7fd6 99bd
00000360: 17d0 bc3e 260d eabc fc50 5a3f d4df a93e
00000370: 756b 6abf 7085 923f d5af cd3d e898 04be
00000380: da64 97bf 8f61 78bf 9545 9bbd 603e 783d
00000390: 5a7e f4bc d56c de3f 4c53 803d 455a b7bf
000003a0: bb6f d23e dcc8 063e 4698 bebf 5d52 763e
000003b0: f248 9cbe 71e5 f53e e71a 5fbe 85bc f8bf
000003c0: 4f93 3b3e c4e6 fc3d a3cc dc3d 5fe5 37be
000003d0: bc47 75be 3ee4 0cbf 0750 f3bf 7d2e a93e
000003e0: eca2 823f 0e4d 9dbf 75ef a8be e977 1e3f
000003f0: 00e7 7abf f636 0abf 8588 c63f cbab 16be
