w4.npy (npy, 102528 bytes, 1 tensors)

array f4 [1024, 25]
00000000: a393 183e a25c 453f defe 4b3f a34f fc3e
00000010: 07d6 063e 5c4d 48bf 1fd8 62bf e9cd b0be
00000020: 9207 273f b7d9 813e 5050 a0be 9e73 683d
00000030: 321e 88be 6fcf f6bf bfc4 493f 2b45 6ebf
00000040: 6f96 36be a2e1 a03e d017 203f 4052 89bc
00000050: b90f 08bf ede0 323f b8e5 d83e de9f 3e3f
00000060: 26c1 9fbf 9ed9 33bf ca69 c3be c450 a53e
00000070: 60c0 9fbe 1c1f bc3f deec 153f 534d 503e
00000080: 83bd 8d3e f8e0 4c3f 9b13 3fbf a3a2 b4bf
00000090: ef41 903f 04ff f93e 74cd 293f 150a eabb
000000a0: e6ca 2fbf 1f95 723f 0afd 313e c600 6fbe
000000b0: 07de 03be 4931 83bf 5365 8bbf 45ce f63f
000000c0: 2f67 ca3f 3e5e a0bf 2be5 bebf 95a9 c3bf
000000d0: 058b cabe d7ce f03d cc2b 8b3f cf11 bebf
000000e0: 0182 e7bf 7379 0f3f a022 15bf faa8 1c3f
000000f0: 255d 193f 5388 883e cf97 a6be 8c76 38bf
00000100: 42f8 aabe b702 903e 76a6 2c3f 46b5 c53d
00000110: dd9c 6b3f c76a ec3f 92ae 2b40 db4a d33e
00000120: ab4a a83e 0fd3 0d40 4dc2 b13e 0aba 7f3d
00000130: df50 e53e 65bf 173e 42cb a3bd eab7 873f
00000140: dc74 46bf 0548 863f 56d4 40bf bd26 d53e
00000150: fb07 923e 65ed 71be 19b6 dabd 0952 adbf
00000160: 8424 133f 5c11 95bf e02d 833f 097b cc3f
00000170: f2eb 043e 04ab 46bf 6bf0 af3f 8326 8d3f
00000180: 10e1 5abf 76ed 8fbf dfb7 17bf e4ed 493f
00000190: 236a 023f d9f2 0d3f dfd7 b3bf 052e d9bf
000001a0: f99f 903e 0a2d ab3f b6f5 f1be c2be dd3f
000001b0: cf3f 313f ec40 e03d 5b51 e8bb 1c7e 65bd
000001c0: 24b2 ac3f e1ce 803f 2c32 c1bb 5c21 ae3f
000001d0: f4b3 a23d 492e 8d3f 4996 3f3e 2547 c3be
000001e0: 4e0d bebf e652 0dbf 9ecc 34bf f29a 6fbe
000001f0: 0d77 56bf 69a2 1fbf 4934 aebf 7d49 be3f
00000200: 2311 e93f 3c68 413e 6edf 8bbf b0bb c33f
00000210: 11af 343f 1996 ddbe 8549 e23e bd1c b83d
00000220: 8309 143f a087 95bf c144 03be 385b 633c
00000230: f9b6 86bf 7658 993f cc51 0dbf b776 a13e
00000240: 00fa bdbf d0b8 0d40 1a96 2cbc 26ed c93e
00000250: edb1 833f 4604 d23d 12a2 a33f abe1 4d3d
00000260: 0167 123f 2c7d c5be e8d9 9ebe 6ca5 0e3f
00000270: 5594 6f3f 6983 bfbf 52b2 65bf 3ddf c1be
00000280: 9b73 49bf ffd0 0dbe e94d 3abf 74af 933e
00000290: 555e 113f 4119 da3f 30dc 843f 3263 873f
000002a0: ac7c aa3f 924d d73d 5365 323e 8be9 a5be
000002b0: 009e e7be a6d3 74bf 1663 df3e fff8 62bf
000002c0: 6605 83bf 9a80 8ebf c0d1 0740 6a5c 0bbf
000002d0: a9ba 8abf b2d3 5a3f 3f83 663f e735 32be
000002e0: d039 2cbf dd42 563f af9e 53bf 4e69 6cbf
000002f0: 1fa5 3fbe 0dcd ef3e 13a3 dabe f632 38bf
00000300: 30dd 93bf 2d7b 37be b80a 4b3f f12c 6c3f
00000310: 7a18 d33e 881b a83f d426 27c0 b268 fdbf
00000320: bd34 643f 59ba 5dbf b762 5ebe 1c76 9cbf
00000330: 4fcf 4c3f e6c5 69bd f845 0640 6b4c 8f3e
00000340: 36a6 343f 7995 0d3e fc76 dc3e c477 873c
00000350: 8592 8a3f bfa2 d83f ac11 7d3f 00ca 023f
00000360: 2503 e9be 2756 5b3e e259 ddbe 1dcb 1d3f
00000370: 0d37 dabf 4473 983f 99b5 5b3f fa94 85be
00000380: b8a6 af3f 59ca f03e 8fed 7e3f 64ea 00bf
00000390: 8119 b3bf 3f36 ea3e 5709 893e a04c 163f
000003a0: 6775 24bf 8034 fabe ff28 77be e301 a3bf
000003b0: a044 e7be e672 7e3f f4c0 a3bf 704e 283f
000003c0: 5e2a 2e3f fa3c 0abd 22fe 843f d0d8 2abf
000003d0: c2d4 503f 17e0 8c3f 80af db3e 49e9 0240
000003e0: abf6 68bf 9e12 87bf b1d7 dfbf 8ce6 c23e
000003f0: e844 46be 7861 8b3f 813a f73e 8ab4 7bbf
0.14900069 0.7709447 0.7968577 0.49279508 0.13167582 -0.7824304 -0.88611025 -0.34532097
0.65245926 0.25361416 -0.31311274 0.056750886 -0.26585537 -1.9282054 0.78815836 -0.9307429
-0.17830823 0.31422144 0.62536335 -0.016762853 -0.5314899 0.6987446 0.42362761 0.7446269
-1.2480819 -0.7025393 -0.38166648 0.32288182 -0.31201458 1.4696994 0.58564556 0.20341997
0.27683648 0.80030775 -0.7463929 -1.4112133 1.1270121 0.48827374 0.6632912 -0.007142315
-0.68668973 0.9475879 0.17381683 -0.23340139 -0.12877665 -1.0249416 -1.0890297 1.9281698
1.5812739 -1.252876 -1.4913687 -1.5286127 -0.39559188 0.117582016 1.0872741 -1.4849185
-1.8086549 0.5604469 -0.5825596 0.6119534 0.5990775 0.26666507 -0.32537696 -0.7205589
-0.3339253 0.2812707 0.674415 0.09653716 0.9203623 1.8470086 2.68253 0.41268048
0.32869467 2.216007 0.34718552 0.06243328 0.44788262 0.14819105 -0.07997753 1.0603001
-0.77522063 1.0490729 -0.75324 0.41631117 0.28521714 -0.23625715 -0.106792636 -1.354066
0.57477593 -1.1645923 1.0248375 1.5975047 0.12980631 -0.776047 1.3745245 1.1027378
-0.8549967 -1.1244342 -0.5926494 0.7887862 0.509432 0.5544868 -1.4050254 -1.6967169
0.2824705 1.337312 -0.47257775 1.732384 0.6923799 0.10949883 -0.0070897765 -0.05602847
1.3491864 1.0063134 -0.0058958735 1.360393 0.079444796 1.102975 0.18709673 -0.38140216
-1.484781 -0.5520462 -0.7062472 -0.2339895 -0.8377541 -0.62357193 -1.3609706 1.4866177
1.8208355 0.18887419 -1.092756 1.5291653 0.7057963 -0.43278578 0.44196716 0.089898564
0.57827014 -1.1682014 -0.12819196 0.013876729 -1.0524589 1.1980121 -0.5520294 0.31535885
-1.4841919 2.214405 -0.010533834 0.39438742 1.0288674 0.10254721 1.2783835 0.050264042
0.5718842 -0.3857206 -0.31025624 0.55721164 0.9358571 -1.4961978 -0.8972522 -0.3786563
-0.78692025 -0.13849257 -0.7277513 0.28844798 0.56784564 1.7038957 1.0379696 1.0577147
1.3319297 0.10512842 0.17421465 -0.32404742 -0.45237732 -0.9563545 0.43630284 -0.8866119
-1.0236022 -1.1132996 2.1221771 -0.5443789 -1.0838214 0.8547927 0.90044016 -0.17403375
-0.67275715 0.83695775 -0.82664007 -0.9234818 -0.18715332 0.4683613 -0.4270254 -0.7195276
-1.1551876 -0.17918082 0.7931323 0.92256075 0.41229612 1.3133402 -2.6117449 -1.9797575
0.8914297 -0.8661247 -0.21717344 -1.2223544 0.8000383 -0.057073496 2.0980206 0.2798799
0.7056612 0.1382655 0.43059528 0.0165366 1.0825964 1.6924666 0.9885509 0.5108948
-0.45510212 0.21419583 -0.43232638 0.6163805 -1.704805 1.1910176 0.8582397 -0.26090223
1.3722754 0.4702938 0.99581236 -0.5035765 -1.3992158 0.4574451 0.26764938 0.5871067
-0.6424164 -0.4886818 -0.24136733 -1.2734951 -0.45169544 0.9939407 -1.279326 0.65744686
0.680334 -0.033749558 1.0390055 -0.6673708 0.8157464 1.1005887 0.42907333 2.0454886
-0.91001385 -1.0552557 -1.7487699 0.38066518 -0.19362223 1.088912 0.48286822 -0.98322356
